best_model.pth (torch, 30434 bytes, 20 tensors)

layer1.weight f4 [64, 40]
00000000: 7821 013d 7011 0dbe 2c05 a1bf 745e 81bc
00000010: 0ee5 143e 851c 27be e69c 89bf 8656 09bc
00000020: 6c89 4abd 7f20 1fbe bae7 58bf af5e 7b3b
00000030: 6fce 593d 1db4 70be 26ad 80bf 6fb1 43bc
00000040: fa9b c73d b463 a7be b960 7abf 3322 b83c
00000050: b1be 803d 1fef a3be 7c61 ccbf 81b6 203d
00000060: cf79 413b 7d41 cfbe 0e9a 0cc0 d8e2 5e3c
00000070: 8b88 86bd a437 ccbe d40e 51c0 fd46 c43b
00000080: d062 fabd e4dc babd f5fc a5c0 22a5 843c
00000090: 3faa 2dbd 407b 1d3d 03e5 1bc1 f0bc 723c
000000a0: ddd5 7fbf e915 90be 9996 903d a6a1 01bd
000000b0: 59de 10bf 5077 11bf c63d 933c 8474 8c3c
000000c0: ef42 cfbe b23a 71be 4f26 9abd 87f4 673c
000000d0: 5cb7 ddbe ebe4 11be 4153 e43d e6d7 313e
000000e0: 1014 e3be f597 96bc e5c8 e03d 1a43 773d
000000f0: 7975 21bf edbe abbd 8667 fa3c 8061 9dbd
00000100: 1109 6bbf 3315 083e 8a41 5f3d 2fc4 61bd
00000110: ec42 9dbf b518 c3be 0fdc b83c f427 853c
00000120: 888c 70bf b915 38be 74ca 23bc 5283 043e
00000130: 8655 fbbe b452 afbe 7368 83bd ca47 d93d
00000140: bc15 d2bd 30e4 9cbf 5766 ff3b b5b5 8abd
00000150: 6b32 47bd 9d43 87bf c48b 9a3d fd75 ffbc
00000160: f524 ab3c 04ae 84bf 839a 7d3c 1538 57bd
00000170: 7ed3 81bc 05f3 62bf 038c 783d cbbf beb9
00000180: 4791 bebc 107c 63bf 5aac 693d 23a6 a13c
00000190: 9e4c 52bc 1136 4ebf ee9b b73b b833 e33b
000001a0: f6f8 383c 47a5 2cbf 8c80 b7bd 93aa 3bbc
000001b0: a1eb 383d b281 0fbf a7e6 7abd 0a27 15bd
000001c0: 3593 503d 6b4e acbe bbb8 00be 81c7 85bc
000001d0: 120e ddbc 17f2 16be f1e0 d33d 332b 873d
000001e0: 7e3c 17bf 92fd 81be 8494 d03c 0839 cabc
000001f0: 0388 b8be 622c cabe eaa7 d03d 2134 ce3d
00000200: 2896 abbe d6f6 03be ad05 79bd 505c c33d
00000210: 4d98 e7bd e92b 5dbe a1ed fa3b e205 a93d
00000220: 82b3 553d 29f9 9cbd 38af 8e3d eab8 9d3d
00000230: bb99 d8bc 9628 4c3c d5f7 a3bd 9998 9fbb
00000240: 3e78 a0bd 5086 b43d 94b4 86bd 638e bdbd
00000250: a480 1ebf ee59 563e cd13 98bd e60e babd
00000260: 9a12 c7bf b80b b23e c577 173e 6eb1 e23d
00000270: 39e1 0ac0 5be8 823d e539 4f3c 704f f73b
00000280: 52bd 60be 84d4 cebd e4be 4fbf c60b 3fbe
00000290: 54c5 06be 5bbf 453d 361d 3cbf eeb9 30be
000002a0: c44e 73bd f193 4c3d 12b6 1fbf c66f 77bd
000002b0: 09b8 f0bd 9b18 cabd 261f 15bf b719 cb3e
000002c0: 4f8a 8eba daf3 2c3e e5c0 29bf 144f 8f3e
000002d0: d785 b23a 3503 4f3e d2fe 6bbf cffa 433e
000002e0: 63a0 3f3e 657a b43e b771 8cbf 3d55 ebbd
000002f0: 5bc5 ec3c 2cc4 e23d e968 9bbf 497a c33d
00000300: e958 2b3e 721a cb3d 4517 bebf 3fad 893e
00000310: 908e 063f 7efb 0dbf f8c2 18c0 93ca 0a3f
00000320: 8023 0bbf 5492 7f3d 5fd7 1dbe 5dd2 db3d
00000330: 7c17 b1be 0b50 893d 4671 08be 6655 3b3e
00000340: b76c 9ebe 81e8 0abd ecbd 82bd bd27 443e
00000350: 9be8 0bbe 3fcf 0cbe 183f 1c3d 7686 493e
00000360: 354e d13b a849 44bd 1fb3 833d 07ee 033e
00000370: b240 fbbd 7ba2 0c3c 19d0 373d bb42 5c3e
00000380: b68d 6f3e a1c8 b9bc d60a d53d 8694 643e
00000390: 66b9 133f a0a7 88bd 3015 c0bc 7d0b 033e
000003a0: dc40 863f 3daf 9dbe 58a3 4abe 6add 2dbc
000003b0: cc1a 9d3f 6256 00bf a8bb 88be 1ffa 24be
000003c0: 0f13 0d40 bade 1b3e 2ade 52be ac56 02bd
000003d0: 7820 143f 669d ce3d 7d14 11bd 4a54 7a3d
000003e0: 6cd2 00bd 0f46 a0be 6495 20be d4bf 9fbd
000003f0: f256 ddbc 76f4 0ebe 162d cfbd 2acd 3ebd
0.03152606 -0.13776183 -1.2579703 -0.01579211 0.14540502 -0.16319473 -1.0751007 -0.008382445
-0.049447462 -0.1553974 -0.84728587 0.0038355996 0.053175386 -0.23506208 -1.0052841 -0.011944159
0.09746547 -0.32693255 -0.9780384 0.022477245 0.062863715 -0.32018372 -1.596725 0.03923655
0.0029522066 -0.4047965 -2.1969028 0.013603888 -0.06569012 -0.398862 -3.26653 0.005989908
-0.12225878 -0.09124163 -5.1871285 0.016192023 -0.042398687 0.03844762 -9.743411 0.014815554
-0.99935704 -0.28141716 0.07059974 -0.0316483 -0.56589276 -0.5682268 0.017973792 0.017145403
-0.40480754 -0.23557547 -0.07526838 0.014157421 -0.43303955 -0.14247482 0.11148692 0.17367515
-0.44351244 -0.018383006 0.109758176 0.060366727 -0.63069874 -0.083860256 0.030566942 -0.07684612
-0.9181071 0.13289337 0.054505862 -0.055118736 -1.2286048 -0.38104787 0.02256587 0.016254403
-0.93964434 -0.17977037 -0.009996999 0.1294072 -0.49088687 -0.34242785 -0.064164065 0.10609396
-0.10258052 -1.2257137 0.0077941823 -0.06772939 -0.048632067 -1.0567509 0.075461894 -0.03118419
0.020891646 -1.0365605 0.015478733 -0.05254372 -0.015847918 -0.8865207 0.0606804 -0.0003638252
-0.023262633 -0.8886118 0.057049133 0.01973254 -0.01283565 -0.8055125 0.005603305 0.0069336556
0.011289826 -0.67439693 -0.08960065 -0.011454242 0.04514659 -0.56057274 -0.061255123 -0.036414184
0.050921638 -0.33653578 -0.12570469 -0.016330482 -0.026984248 -0.14740787 0.103456385 0.066000365
-0.5907668 -0.2538877 0.025461443 -0.024685398 -0.3604127 -0.39486986 0.10188277 0.100685365
-0.33512998 -0.12887129 -0.06079643 0.095390916 -0.11308346 -0.21598782 0.007657722 0.08253075
0.052173145 -0.07664711 0.06967014 0.07701285 -0.026440492 0.012460848 -0.080062546 -0.004870486
-0.078354344 0.088146806 -0.06577411 -0.09255674 -0.6191504 0.20932743 -0.07425652 -0.09084873
-1.5552552 0.34774566 0.14791782 0.11068998 -2.1699965 0.063919745 0.0126480805 0.0075473115
-0.2194722 -0.10099128 -0.8115065 -0.18656835 -0.13161212 0.048278194 -0.7348207 -0.17258427
-0.05940129 0.049945775 -0.6238719 -0.06040933 -0.11753852 -0.09867974 -0.58250654 0.39668056
-0.0010874959 0.16889897 -0.6630996 0.2799002 0.001362021 0.20216067 -0.921857 0.19138645
0.18713526 0.3524963 -1.0972203 -0.11490867 0.0289027 0.11072573 -1.2141391 0.095448084
0.16733135 0.099171534 -1.4850851 0.2688999 0.52561283 -0.5546187 -2.3869 0.54215354
-0.54351044 0.06239541 -0.15414189 0.10733483 -0.3458823 0.0670472 -0.1332446 0.18294296
-0.30942318 -0.03391314 -0.06383881 0.19155784 -0.1366295 -0.13750933 0.03814611 0.19680199
0.006387497 -0.047921807 0.06430649 0.12883769 -0.12268199 0.00858366 0.04487619 0.2150983
0.23393902 -0.022678675 0.104024574 0.22322282 0.5770477 -0.06672597 -0.023447603 0.12797351
1.0488544 -0.3079776 -0.19788873 -0.010611871 1.2273803 -0.5013181 -0.2670567 -0.16111039
2.2042882 0.15221682 -0.20592561 -0.031820938 0.57862043 0.10088615 -0.03541993 0.06111554
-0.031450674 -0.3130345 -0.15681988 -0.0780026 -0.027018998 -0.13960442 -0.10116021 -0.04658238

layer1.bias f4 [64]
00000000: 8b34 95bd 24fe 0dbe 95cf 383d 399d 3f3d
00000010: ebe0 f53d 77e3 c3bd eab1 433b 4cbf db3c
00000020: 18f7 143d 7c34 ae3d 7da5 123e d296 d4bd
00000030: e517 b9bb febf d43d 4909 f53d c98c a73b
00000040: 4031 09be 872c 1c3e a536 a53c ad16 763d
00000050: 4118 c3bb 453d b5bc aa9f a03d f54e 1bbe
00000060: aaae 45bc de82 7f3d 5f8e 623d 045a 093d
00000070: 8fd6 c53d 1b12 b6bd ca22 d93c 945a d7bd
00000080: 3bbc 243e bf17 0ebe 3696 7c3d acb6 cfbd
00000090: 4a55 bebd 4981 a93d 7ecf 8cbd 271c 053e
000000a0: 051c 14be 8c8d 093e 7759 183e 8732 153e
000000b0: 2b49 27be 2c42 003d a391 2f3e 7492 1fbe
000000c0: 0758 f5bd bf43 0ebe e07c f9bc 8711 0f3d
000000d0: a7c8 ba3d 21a4 e93c 0e6c 17bd c14f c43c
000000e0: ebfd 3abd 0348 4a3d a696 a6bd 1e92 4abd
000000f0: e49b 94bd 04c6 133c b7ec 20ba bbd6 1bbe
-0.072854124 -0.13866478 0.04511984 0.0467808 0.1200579 -0.0956487 0.0029860684 0.026824616
0.03636846 0.08506104 0.14320941 -0.10380329 -0.0056486004 0.10388182 0.11964662 0.0051132184
-0.13397694 0.15251361 0.020167658 0.06008022 -0.005953819 -0.022123942 0.078429535 -0.15166838
-0.012065569 0.062380664 0.055311557 0.03353311 0.096600644 -0.08890172 0.026505847 -0.10515323
0.16087429 -0.13876246 0.06166669 -0.10142264 -0.09293611 0.08276612 -0.068755135 0.1299902
-0.14463814 0.13432902 0.14877878 0.14570056 -0.16336505 0.031313106 0.171454 -0.15583211
-0.119796805 -0.1389303 -0.030455053 0.034928825 0.09120303 0.028520646 -0.036968283 0.02396381
-0.04565231 0.049385082 -0.08134203 -0.049455754 -0.07256296 0.009019379 -0.0006138789 -0.15218632

bn1.weight f4 [64]
00000000: 1940 8040 fe42 473f 647b 9b3f 5e46 aa3f
00000010: 61c4 8c3f fdab 7f3f 42aa 613f bd33 8a3f
00000020: f36c 8b3f 60c3 043f c7d6 473f 7a60 603f
00000030: 0b8c 3740 c7a8 723f 6ec8 6f3f 20ed 2c3f
00000040: 4f6e 083f 3811 b23f 8d3f 6f3f e97d 983f
00000050: 0ee3 863f 4c2f 8b3f 8550 423f 587a 8c3f
00000060: d4b4 123f f3d7 193f fabf 8a3f efd9 813f
00000070: d0b0 5e3e 151d 473f 572e 9a3f deac c43e
00000080: 06a0 c63e 073d 7d3f 3600 dc3e 8c33 2b3f
00000090: 8772 903f 9ca9 6f3f abef 6a3f 1f01 2c3f
000000a0: 91ea a53f 21b3 733f f399 1c3f e584 ff3e
000000b0: 4e47 8d3f 2d76 303f d2d0 543f b4ae 683f
000000c0: 5122 b03e 2063 923f c67f 253f 4be9 5d3f
000000d0: 3eec 303f 5281 883f 97f3 873f a79b 8240
000000e0: a4ec 743f a83e 8d3f 2437 8a3f 50d8 973f
000000f0: bcd2 7f3f de65 813f f7e4 483f 0075 183f
4.0078244 0.77836597 1.2147031 1.3302724 1.099743 0.9987181 0.8815042 1.0797039
1.0892624 0.5186062 0.780621 0.8764721 2.8679225 0.94788784 0.93665206 0.67549324
0.5329332 1.3911505 0.93456346 1.1913425 1.0538042 1.0873809 0.75904113 1.0974836
0.5730717 0.6009514 1.0839837 1.0144633 0.21747136 0.7777875 1.2045392 0.38413137
0.38793963 0.98921245 0.4296891 0.6687553 1.1284951 0.9361818 0.91771954 0.6718921
1.2962209 0.95195204 0.6117241 0.49906078 1.1037385 0.6893032 0.83131135 0.90891576
0.3440118 1.14365 0.6464809 0.866841 0.69110477 1.0664465 1.0621213 4.0815005
0.95673585 1.1034746 1.0798078 1.1862888 0.9993093 1.0109212 0.7847437 0.5955353

bn1.bias f4 [64]
00000000: fa0d 08bf 5f80 a6bb 2800 4cbd f7f1 723d
00000010: 38c4 a8bd 6b3b 06be 9dca 04bc 1b14 a3bd
00000020: 893b e73c 5438 43bd 7c34 3d3d 2ff5 f8bd
00000030: e96d 91bd b6e4 54bd 96b7 8fbe 1262 51bd
00000040: 4b52 fcbb 2c39 44be 4cd3 023d 129c a8bc
00000050: 57ac 78bd 614b f83b 7cbb 9cbc ca0b 963c
00000060: 488b 1f3d 8d2b d8bc 9e4d 8b3d 8058 ee3d
00000070: 5d53 193e a173 e8bd b670 44be 9a38 c2be
00000080: 08fc 09be aca4 8dbd 5594 cfbe a8d9 12be
00000090: 319c 84bd a856 9b3d 71be ae3c 4d64 5b3d
000000a0: d5f0 733d 775c b5be 3432 9abe 3a9b 353d
000000b0: e0be 38be deff 22be 0cb6 32be 65e5 1dbe
000000c0: a42d fc3c 9424 ac3e d616 0abe 3e49 f03c
000000d0: d7e7 55be dafc a13d 84e9 02be 6ccb 08bf
000000e0: 86b6 413c ecd7 9ebd 81ff 04be ac84 323d
000000f0: 4db6 17be 7584 a93d 4bc6 e2be 5cba 4cbe
-0.53146327 -0.005081221 -0.049804837 0.059312787 -0.08240551 -0.13108604 -0.008104947 -0.07962819
0.02822663 -0.04766114 0.04619263 -0.1215614 -0.07101042 -0.05197593 -0.28069752 -0.051118918
-0.00770024 -0.19162434 0.03193979 -0.020582233 -0.06071123 0.0075773452 -0.019132368 0.018316168
0.03895119 -0.026387954 0.06801914 0.11637974 0.14973207 -0.113501795 -0.19183621 -0.3793381
-0.13475049 -0.06916174 -0.40542856 -0.14340842 -0.06475104 0.07584888 0.021331044 0.05356245
0.059555847 -0.35422108 -0.30116427 0.04433749 -0.18041563 -0.15917918 -0.17452258 -0.15419538
0.030783482 0.33621657 -0.13485274 0.0293318 -0.20889221 0.07909556 -0.12784392 -0.534354
0.011823302 -0.077560276 -0.12988092 0.043583557 -0.14815636 0.08277217 -0.4429191 -0.19992965

bn1.running_mean f4 [64]
00000000: 4ad3 88bf a4aa 6fc0 b015 9eb9 3b7b 3ac0
00000010: 746c aebd 5497 3a3f ebd9 a53f 38c9 313e
00000020: cf37 8dbf c2e6 eb3f 24ed 3e3f d2d3 57bf
00000030: 1da8 8dbf aae7 073f f3ac 2640 25d0 15bf
00000040: 659b 493d ee75 c1be e3cc fcbf f519 45bf
00000050: 064f eb3f 1cef 31c0 cd08 3340 83dd e4bf
00000060: eba1 ce3f 5cb9 ab3d e5ad 8e40 a34d a8be
00000070: 60e2 b9be 50e9 35bf 04bc f8be 6f10 25c0
00000080: 2976 1abf dfd6 40c0 0855 0dc0 62b0 e83f
00000090: 8a8e 95bf c4bc 033e 415e 5ebf fe64 6f3d
000000a0: 1d5a 81c0 f62f 9f3d 91c3 88bf 6892 ba3f
000000b0: 9473 38bf 34d8 163e b943 033f d8d6 9ebf
000000c0: 6ee5 46be c7b0 ccbe eb6c 3dbe e4ff 0bc0
000000d0: 3ea4 1bbf 09e1 8940 6a77 0ec0 648d 9cbf
000000e0: 74c7 f83e cb27 13c0 b85c 51c0 444d 83c0
000000f0: cb3c 13bf e1db 363f 284e e1bc d626 6fbe
-1.068948 -3.74479 -0.00030152267 -2.9137714 -0.085167795 0.7288716 1.2957128 0.17361915
-1.1032656 1.8429797 0.745806 -0.8430759 -1.1066929 0.53087866 2.604306 -0.5852073
0.04922046 -0.37785286 -1.9750026 -0.7699273 1.8383491 -2.780219 2.7974122 -1.78801
1.6143163 0.08384964 4.4587274 -0.32871732 -0.36305523 -0.7105913 -0.48580945 -2.579128
-0.6033655 -3.0131147 -2.208315 1.8178828 -1.1684124 0.12864977 -0.8686257 0.058445923
-4.04225 0.0777282 -1.0684682 1.457593 -0.7205136 0.14730912 0.5127521 -1.2409315
-0.19423458 -0.3997862 -0.1849858 -2.1874933 -0.6079749 4.30872 -2.2260385 -1.2230649
0.4858967 -2.2993038 -3.271284 -4.103182 -0.5751464 0.7142926 -0.027503088 -0.23354658

bn1.running_var f4 [64]
00000000: 4d8e 0b42 a60c 2341 67db 353e d1b7 da40
00000010: ac5b a840 df46 2f3f 981e b63f dcb4 a53f
00000020: e6d6 e23f 667a 2640 dc6c ba3e 0a8b 033f
00000030: a048 0142 b583 ab3e b930 9d40 7222 273f
00000040: 96f0 153e 1875 2a41 1253 4140 05dc cf3f
00000050: 3348 3140 77e5 c440 852d ba40 aeb0 0540
00000060: 7810 1740 0939 ce3d 39ed 6f41 e559 da40
00000070: a149 1b3f 7799 c43e 617b 7e40 40e8 9f40
00000080: 9243 093f ee30 cf40 319f 8140 655b 3440
00000090: d317 853f c2d5 003e 4404 283f f374 3e3d
000000a0: 784f 3d41 ac70 283e c2ac aa3f 11e5 bc3f
000000b0: 0b81 a440 816d 8c3f 8114 973e 327b 873f
000000c0: 6b08 b13e 160b c93f 0004 223f 739c 7c40
000000d0: 1b38 023f a3f7 6341 4c87 7840 87fa 3442
000000e0: fd58 0440 2186 8d40 06b2 fa40 8c9a 4c41
000000f0: cbcc c73f 8509 033f 979b 8f3f e0f4 0f3e
34.888966 10.190588 0.17759477 6.8349385 5.2611904 0.68467516 1.4228086 1.2945819
1.7721832 2.6012206 0.36411178 0.5138403 32.320923 0.33498922 4.9121976 0.65286934
0.14642558 10.653587 3.0206952 1.623902 2.7700317 6.153011 5.8180566 2.0889087
2.3603802 0.10069472 14.995416 6.8234735 0.60659224 0.38398334 3.9762805 4.997101
0.5361873 6.474723 4.0506825 2.8180783 1.0397896 0.12581542 0.6563151 0.04649825
11.831902 0.16449231 1.3333972 1.4757406 5.1407523 1.0970918 0.2950783 1.0584471
0.34576735 1.5706508 0.63287354 3.947049 0.5086686 14.247958 3.8832579 45.244656
2.0679314 4.422623 7.8342314 12.787731 1.5609373 0.511864 1.1219357 0.14058256

layer2.weight f4 [32, 64]
00000000: 542a d9bf dbfd 063d 050d 253f dcd7 12bd
00000010: 3034 703d 5e56 85be 281f 053e 6bc1 52bf
00000020: 1984 8cbe 6a13 643e 4373 abbe ce51 4cbd
00000030: 546a 54bf 00b2 4dbd 73c7 35be dcfb b23e
00000040: 3233 203e d361 21bf 80c1 553d 13b7 0d3f
00000050: a0a6 353c 9c70 8c3e 94a3 6f3c 1057 19be
00000060: 8a2d 12be f419 793d 2c13 a8be c341 aabe
00000070: b6dc 8f3e 2018 51be a8f3 a2bd 6fe7 c63d
00000080: 231a 323e 90b7 c4be 8374 79be e242 9a3e
00000090: 4846 e0bd f7c2 8abb bb1a 25bd 3a57 bdba
000000a0: 6e0f 2c3d 32c4 583e 60bf 7ebe d975 a33d
000000b0: 9d78 d5bc c328 c4bd 77e8 adbd 9438 163e
000000c0: 560d e53e ef48 f7be 9970 4b3e c348 cebd
000000d0: 95a6 0c3e 92c0 cebd e64d ccbd d463 d2bf
000000e0: 8073 2ebf ccff 92bd 7e9a 4dbe 08c0 143e
000000f0: 0128 8c3e 8fc4 0f3d d8ba bf3d fdd2 873e
00000100: 7175 6dc0 378b 4d3d 0e72 afbe 235b 2b3e
00000110: 88df c0be 90aa 763e 8648 fb3d 55ca 273e
00000120: fc0c 1c3e 07da ddbd 9b2f 083e 95ae 6a3d
00000130: 1e38 91bf 0a1c d1bd cb9f 9b3e d9fb c0bc
00000140: b563 ddbd 58f0 34bf 8119 143e 4139 623e
00000150: e5c6 9e3e 17d0 c9b9 72ce 4b3e cd93 823d
00000160: 118a 0f3c be78 bc3d 058d e93d fc10 90be
00000170: cece f1bd c31c d63d 64a5 3abf b360 723d
00000180: ce20 8d3c 10a7 433d 6e21 f2bd 0fc2 833d
00000190: 2315 c6bd 5a11 1c3e 3c3b 373b 9a69 bf3d
000001a0: dbe5 b43d 42bb a1be 2f80 d73d 3aa2 64be
000001b0: 8f61 d2be b31d 763e 3b69 c53d 540f 5cbd
000001c0: 0e8e d83d 764f c13d 45fe bdbd af58 5e3d
000001d0: 0b24 cd3d a4dc 2b3d 0850 c4bb 35bf 21c0
000001e0: 8d8f 243e 1bb4 e33b b6bc f33d 4235 dd3d
000001f0: 203a 71be d238 063d fe0a 8ebe 84ef c0be
00000200: 9139 cbbe 2dab c23c e9ca 88bf d8ca 5dbf
00000210: 6588 eb3c 3f3a 34bd c1c3 993d 4621 6dbe
00000220: d558 11bd 8480 a0bb 9490 9abe e698 db3d
00000230: 5da9 53be be1f 293e a536 26be 04b6 203e
00000240: eeab 06bb 1cee 61bc 49a8 b1be 8892 01be
00000250: 0263 95be cb5d b9bd d001 94bc e4c8 393d
00000260: d565 483e 53b6 6dbf e1cf f83d fcde 6abe
00000270: bf62 69bf 816c a2bc bb0d 7c3e dd4e e4be
00000280: 72cf 42bf 09df 4b3f a94f f03d 62fb 0fbe
00000290: 82f5 e93e c8b9 e03b a2ee ef3d b9ef c9bd
000002a0: b7b8 2fbf 8141 dfbc 19ce 8dbe bd81 0e3e
000002b0: a1dc 223f 62d4 33be b99f 34be 8d5a a83e
000002c0: 0a64 81bd 072b 623e 56c2 003d 5cbd 06bf
000002d0: c9d7 c1bd f824 d23d 86ef 153e 4582 bfbe
000002e0: ddd6 193d 0e8e 153f c1d4 173e e981 2cbf
000002f0: 7a66 8d3e 7f66 4b3e 2c6b 863e bc29 b03d
00000300: efac 1a40 7451 b83d 3844 69be bf43 9e3e
00000310: 2e37 acbd ddb8 8c3e cbaa 603d ab5b aebe
00000320: 1c98 193e 3d28 5f3e 4418 03be 5f01 493d
00000330: 1b3e 6f3f e165 94be 4ad3 a33e ad1b d8bd
00000340: 27f2 9f3d 061e b83e 0ec6 6b3d c1da 58be
00000350: 1e6f d13d 11b5 0b3e 3616 323e cb04 153d
00000360: a497 583e 574e d7bd e6fa 0abd 918b f8be
00000370: 533f 813d 422c 483c 9bc0 053f 118f 00be
00000380: ad7c 30be fbe9 67be 8dee e7bd 45f5 ae3d
00000390: 6995 f2be 649a 06be 8f97 083f 4354 fa3d
000003a0: 85c8 603e 06f9 94bc f005 4a3e 54fc 453e
000003b0: 4f8f 163f f7af e8be e16c 713e 384a dc3e
000003c0: e365 82be f8e5 90bc b932 aa3e 5eb7 563e
000003d0: 65f3 1fbe e9de dd3d f2c8 953e 5891 4540
000003e0: 4748 1bbe 324d 543a 69d6 34be d2cf 2d3e
000003f0: 29d1 863d 3c12 29be 9f6f 153e c575 a1bd
-1.6966043 0.03295694 0.6447299 -0.03585039 0.05864352 -0.26042455 0.13000166 -0.8232638
-0.27444533 0.22273031 -0.33486375 -0.049882703 -0.82974744 -0.050218582 -0.17751865 0.34957778
0.1564453 -0.6303989 0.05218649 0.55357474 0.01108709 0.27429664 0.014626402 -0.14974618
-0.14275184 0.060815766 -0.32827127 -0.33253297 0.28098077 -0.20419359 -0.0795663 0.09712111
0.17392783 -0.38421297 -0.24360852 0.30129153 -0.10950905 -0.0042346674 -0.040308695 -0.0014445551
0.042006902 0.21168593 -0.24877691 0.07981462 -0.02605849 -0.09578087 -0.08491605 0.1467002
0.44736737 -0.4829783 0.19867171 -0.10072472 0.13735421 -0.100953236 -0.099757954 -1.6436715
-0.6814499 -0.07177696 -0.20078465 0.14526379 0.2737427 0.035099562 0.093618095 0.2652816
-3.710293 0.050181594 -0.34266704 0.16733985 -0.3767054 0.24088502 0.12269692 0.16385777
0.15239328 -0.10832601 0.1329941 0.0572954 -1.1345251 -0.10210426 0.3039535 -0.02355759
-0.10810033 -0.70679235 0.14462854 0.22092153 0.3101112 -0.00038492747 0.19902971 0.06375847
0.008760945 0.09202717 0.114038505 -0.28137958 -0.11807023 0.104547046 -0.72908616 0.05917425
0.017227557 0.047766745 -0.118227825 0.06433498 -0.09672 0.15240994 0.002795889 0.09346314
0.08832904 -0.3158818 0.10522496 -0.2232751 -0.41090056 0.24034767 0.09639212 -0.053725556
0.1057397 0.09438984 -0.09277014 0.054283794 0.1001664 0.041958466 -0.005990986 -2.5272954
0.16070385 0.0069489605 0.11901228 0.10801174 -0.23557329 0.03276903 -0.2774276 -0.37682736
-0.39692357 0.023763264 -1.0686923 -0.8663764 0.028751561 -0.04400086 0.0750804 -0.23157224
-0.035485107 -0.0048981328 -0.3018843 0.107225224 -0.20670076 0.16516015 -0.16231783 0.15694433
-0.0020549255 -0.01378968 -0.34698704 -0.12653553 -0.291771 -0.09051093 -0.01806727 0.0453576
0.19570096 -0.9285633 0.12149025 -0.22936624 -0.911663 -0.01982713 0.24614613 -0.44591418
-0.76097786 0.796372 0.11733944 -0.14060739 0.4569512 0.0068580844 0.117154375 -0.098601766
-0.6864123 -0.027252914 -0.27696303 0.13916679 0.63617903 -0.17561486 -0.17639054 0.32881585
-0.06317909 0.22086726 0.031435333 -0.5263269 -0.09464986 0.102609575 0.14642152 -0.37404075
0.037558425 0.58419883 0.14827253 -0.6738573 0.27617246 0.19863318 0.2625364 0.0860171
2.416805 0.08999911 -0.2277993 0.3091106 -0.08408962 0.2748479 0.05485038 -0.34054312
0.14999431 0.21792693 -0.12802225 0.049073573 0.9345414 -0.28983977 0.31997138 -0.10552154
0.07809859 0.35960406 0.057561927 -0.21177198 0.10226272 0.1364329 0.17391285 0.036381524
0.21151596 -0.10512989 -0.03393068 -0.4854398 0.06310906 0.012217583 0.5224702 -0.12554576
-0.1723506 -0.2264785 -0.11324797 0.08542875 -0.47379616 -0.13144833 0.5335626 0.12223103
0.21951492 -0.01818515 0.19728827 0.19334537 0.5881242 -0.4544675 0.2357669 0.43025374
-0.25468358 -0.017687783 0.33241823 0.20968387 -0.15620191 0.10833532 0.29254872 3.086996
-0.1516429 0.0008098661 -0.17659916 0.16973808 0.06582863 -0.16510862 0.14593361 -0.07883791

layer2.bias f4 [32]
00000000: 0882 d83b 3e29 ba3d 8a8c 8bbc 6c92 ec3d
00000010: d0c9 093e e838 6fbd 18c8 ba3c bc64 143e
00000020: 0804 1dbd f35b e73c 622a 203d a896 d23d
00000030: 7410 cbbd 7d80 2ebd 8315 d3bc 479f 3a3d
00000040: 5ceb 7ebb 8467 96bc 7671 a23d 53cd f13d
00000050: 2d5f ed3c 3934 e7bd 319f 8d3c 31db b93d
00000060: 8058 fabd e4f1 f2bd 80c9 1e3d 1fef 5cbc
00000070: f1e3 5e3c c53a a7bd 89e2 ac3d 29f7 0abe
0.006607298 0.090898976 -0.017034788 0.11551365 0.13455892 -0.05840388 0.02280049 0.14491552
-0.038333923 0.028242087 0.03910292 0.10282642 -0.099152476 -0.042603005 -0.025767094 0.045562055
-0.003889761 -0.018359907 0.07931797 0.118067406 0.028976047 -0.112892576 0.017287822 0.090750106
-0.12223911 -0.11862543 0.038766384 -0.013484745 0.01360415 -0.08165506 0.08441646 -0.13570847

bn2.weight f4 [32]
00000000: 3cf1 033f ed3c 383f 7bc7 603f 59b7 7c3f
00000010: 7e59 7e3f e563 803f c420 4a3f 4674 723f
00000020: 726a 423f f225 1f3f 5829 a23f e982 613f
00000030: 1ea7 023f 2086 af3f 3331 6d3f f5f5 843f
00000040: 3bd8 573f 7897 883f 4f91 813f 8dfd 1f3f
00000050: bc5f 2d3f 16de 123f d2bf 833f a7bc 943f
00000060: c71c 5e3f efa0 583f 8df0 8e3f 2971 823f
00000070: 34ed 7c3f e555 653f dc4a 623f 3223 753f
0.5153997 0.71967965 0.87804383 0.98717266 0.99355304 1.0030485 0.78956246 0.9470867
0.7594367 0.62167275 1.2668867 0.8809038 0.5103625 1.3712807 0.926532 1.038756
0.84314317 1.0671225 1.012247 0.6249626 0.67724204 0.57370126 1.0292914 1.1620072
0.8676266 0.84620565 1.116716 1.0190784 0.98799443 0.8958419 0.88395476 0.9575683

bn2.bias f4 [32]
00000000: 29b9 c5bd 4405 1c3e d81e 64be cf19 52bf
00000010: 8e52 aabe 211c 90be 20cd eabe b447 5abf
00000020: 9337 21bf 259c 5dbe d27d fcbe 86e2 9bbe
00000030: 09de 083e e17b 0bbe fdfb 67bf ce9b dfbe
00000040: b9ec dabe d0fa c4be 4634 88be 5d51 86bd
00000050: 2f32 73be f78e bc3e c817 80bf 23c4 e7be
00000060: 7c91 bdbe 2843 66be 90a8 29bf c939 4bbf
00000070: bf70 c6bd a2d3 aabe c16a efbe f238 a1be
-0.09654457 0.15236384 -0.22277391 -0.8207063 -0.3326611 -0.2814646 -0.45859623 -0.8526566
-0.62975425 -0.21641596 -0.49314743 -0.3044626 0.1336595 -0.13621475 -0.9061888 -0.43673557
-0.4275873 -0.38472605 -0.2660238 -0.065584876 -0.23749612 0.36827824 -1.0007257 -0.45266828
-0.37025058 -0.22486556 -0.6627283 -0.7938505 -0.09689473 -0.33364588 -0.46761134 -0.31488758

bn2.running_mean f4 [32]
00000000: bb78 dabf e249 59be e037 aabf 761b 0640
00000010: 2c1d b5bf 0ced 84be d75c 9740 fdac 153f
00000020: 1e22 4140 ac2e e7bf 114e 31bf 804e 32bf
00000030: 6319 0040 b56b e63f 8cbc 9740 f631 96bf
00000040: abef de3f c46d c2bf 0d3c 813f 86fc e53e
00000050: 5ff1 7dc0 36b3 0bc0 c156 c0be a943 ff3f
00000060: dc0b 0cc0 ba15 0fc0 93b2 97bf dc53 cb3f
00000070: 35eb f7be b20b e3bf 5578 2c40 492b cfbf
-1.7068094 -0.2121959 -1.3298302 2.095426 -1.4149528 -0.25962102 4.730083 0.58467084
3.0177073 -1.8061118 -0.69259745 -0.6965103 2.0015495 1.800162 4.741766 -1.1733997
1.7416891 -1.5189748 1.0096451 0.44919223 -3.9678571 -2.1828132 -0.37566188 1.9942523
-2.1882238 -2.235701 -1.1851372 1.5884967 -0.48421636 -1.7737944 2.6948445 -1.6185085

bn2.running_var f4 [32]
00000000: f15f b03f 9aae 353f 6813 1540 614c 8d3f
00000010: d4a1 b040 8282 2540 93ff 3540 ac77 f83e
00000020: 703d ef3f b72a 0440 f8de 9b3f 943a 2440
00000030: faf4 cc3f 81ea 8e3f cdd4 1940 eb00 d53f
00000040: caf7 0f40 b7f0 2740 5b63 0a40 f227 c13f
00000050: 2c9e cd40 f216 5640 fafb 893f c0e1 c43f
00000060: 4e4b 8840 2b1a 5440 1efd 933f 3fdf 8e3f
00000070: dae2 8340 72ed 1340 e256 913f 725d 0b40
1.3779279 0.70969546 2.3293095 1.1038934 5.5197544 2.5860906 2.843724 0.48528802
1.8690624 2.065107 1.217742 2.5660753 1.6012261 1.1165315 2.4036133 1.6640905
2.2494988 2.624067 2.1623142 1.5090315 6.425558 3.3451505 1.0780022 1.5381393
4.2591925 3.3140972 1.156162 1.1161879 4.121442 2.3113675 1.135464 2.1775784

layer3.weight f4 [16, 32]
00000000: 5ac9 54be 3550 453e aae4 cbbe e1d9 3fbf
00000010: afed 86be 1210 06bf 1e56 61be 6aea 513c
00000020: 9e46 393d 2db7 e1bd d014 0cbd 1904 0bbf
00000030: 9be4 7c3e f3f0 6a3e 9fba aebe bf82 93bd
00000040: 86a9 34bf f9a1 9a3d 998e 133e 5a6c 1cbf
00000050: d23d 463d c07e efbe 8352 cc3e 1eeb 91be
00000060: 2582 15be 08ae 05bf dd7a 98be 261e 4fbe
00000070: 1d75 9e3e 1189 9abc 20be c43e afd3 cd3d
00000080: 2b3a 06bf f6e7 0a3e a716 d93e a717 dabe
00000090: 9785 6e3b c777 0cbf 8b05 cabd f404 dabd
000000a0: 0dbd d43e d212 b63d aa83 40bf f953 c0be
000000b0: 1a7f 253c 7dfa 933c 935c a0be 6679 7f3e
000000c0: 677e 87bd 1aa5 143f 0136 03be 63a5 023c
000000d0: 68f9 8fbe d6a8 8fbe 6ee9 983e 25a8 f43c
000000e0: c32f d2be 098d b13c 7025 1a3e 21f7 59be
000000f0: f9c8 34bf 00eb 47bd 2cf3 363f 269a e03e
00000100: 2ff5 8d3e c715 27bc f5f4 ecbe 4d53 89be
00000110: cf10 20be e7f3 b93d d02f 653e d720 64bf
00000120: 7a32 0cbf dc2f adbd 5555 973e e8e8 263c
00000130: 7451 4a3e 648f 22be bad1 d4be 52ab c13e
00000140: 190e b53e 6047 2dbf 8ed4 febe 17cf 1dbf
00000150: 0670 8a3e 9071 cf3d 4098 c4be 175e c1bd
00000160: d72f babd e40a 97bd e263 5bbf 0204 243e
00000170: 0a48 6fbb 0d31 14bd 5af3 27be a50d 073e
00000180: caba 01be 10e9 02bf a9cc 91bd 0e58 36be
00000190: b2b0 17bf 9ae1 793e cc8f e1be 08ab 56be
000001a0: ebaf e1bc 1462 153e ab8f f8bd 3888 463e
000001b0: 7168 5b3d 7609 e73e 4366 93be 6422 8e3e
000001c0: 37e2 483e ef9d bcbe 4f8b d1bd 55cb a5be
000001d0: ac57 a0be 625f 753e 5efc 403e bd36 49bf
000001e0: 39b2 f9bd 21df 1b3e 2b05 8ebe 59a3 4cbe
000001f0: 5f00 40be fce0 76bd cd5b 0cbe 8d74 f03e
00000200: 2304 cebe 9fbe 96bf c1d2 0ebc cdea 803e
00000210: 009a 7fbd 7794 663e 825f b53e ef71 bf3d
00000220: 13ba c1be b3cc 50be 5426 18be ae5c 8cbd
00000230: 3e9b 73be 84d9 083d 5351 823f dfa8 4fbe
00000240: bd1c ebbd b213 cebd 5d4a 9c3e be03 b43d
00000250: 6035 a0be 31cf 29bd e0fd 08bd e591 a03d
00000260: 7f4c 18be 1b95 a33d a5b8 dabe 93f2 5dbf
00000270: b183 49be 946e 35be e721 b9bd 3d12 8d3d
00000280: bde4 293e 4774 3bbf fd60 3cbe 4137 593c
00000290: 4dd4 013e 9f9d 863e 5701 b8be 7ad8 9a3e
000002a0: 0e4a 84bf 8ba6 643e a7a5 8e3e 40c2 2d3e
000002b0: 449d 41be be63 e03e 835e a93d abda 8f3e
000002c0: 956a a2bd f724 263d 4d3d 8d3e fe8a 56be
000002d0: 558b e13d 738c 5b3e b570 69be 7f5b 29be
000002e0: 1f87 4abd 94c4 f13d 2cbc 7a3d bc48 6fbd
000002f0: eeb8 9ebe 5955 9c3e 0263 4b3e e8a6 1b3f
00000300: 8135 953e f54f cbbd 3854 c33c bf8b f1be
00000310: d655 8dbe e1ca a6bd 3bfe eebe 4cac d33d
00000320: 9e46 8b3e 4dea d53e 68d2 ec3e 3c8b 2c3e
00000330: 7039 3abe fd93 07bf 6864 f7be 5199 85bd
00000340: cc47 33bf 27be 823c 7206 f5be b077 863e
00000350: ed28 a03e 130c 87be aeef eb3d 9636 f3be
00000360: fcbc 833d 6819 ef3d f488 79be 2200 e23c
00000370: 6639 913e 231a 27bf da5e 14bf cad3 1cbe
00000380: ff64 723e 5047 11be 7307 a5be 7d03 dc3e
00000390: 8998 5cbe d231 03bf 6a23 14bf fb08 3fbf
000003a0: d75f 91bf 1482 d1be 4af7 05bf aabe dcbe
000003b0: d42b 90bd f82f c03b fd3a 05be 7381 43be
000003c0: 1403 053e e47a c23d af2a fbbe 4071 4d3e
000003d0: 5e48 203e da31 30bd 6032 143e 6363 9ebe
000003e0: 9810 a03e b24d df3d fce0 7e3e bb35 86bd
000003f0: 04e3 f1bd 6e7b 50be 10a1 39bc c387 2cbe
-0.20779935 0.19268878 -0.39822894 -0.7494183 -0.26353213 -0.5236827 -0.22005507 0.012812236
0.04523336 -0.11021266 -0.034199536 -0.5430313 0.24696581 0.22943477 -0.34126756 -0.07202672
-0.7057117 0.07550425 0.14409865 -0.6110283 0.0483988 -0.4677639 0.399067 -0.28499693
-0.14600427 -0.52218676 -0.29781237 -0.20226344 0.30948725 -0.018864186 0.38426304 0.10050141
-0.5243251 0.13565049 0.42400095 -0.4259617 0.0036395544 -0.54870266 -0.098643385 -0.10645476
0.41550484 0.088903084 -0.75200903 -0.37564066 0.010101104 0.018063778 -0.3132063 0.24948654
-0.06615906 0.58064425 -0.1281357 0.007974002 -0.2811997 -0.280585 0.29865593 0.029865334
-0.41052064 0.021673696 0.15053344 -0.21285678 -0.7061916 -0.048808098 0.714648 0.43867606
0.27726123 -0.010198063 -0.46280637 -0.26821366 -0.15631412 0.09079724 0.2238152 -0.8911261
-0.5476452 -0.08456394 0.2955729 0.010187365 0.19757634 -0.15875012 -0.4156626 0.3782602
0.35362318 -0.67687035 -0.4977154 -0.6164412 0.27038592 0.10129082 -0.38397408 -0.09441774
-0.09091156 -0.07375124 -0.85699284 0.16017154 -0.0036511444 -0.03617959 -0.16401425 0.13188799
-0.1266891 -0.51136875 -0.07119114 -0.17807028 -0.5925399 0.24402466 -0.4405502 -0.2096368
-0.027549705 0.14588195 -0.121367775 0.19387901 0.0535664 0.45124406 -0.28788957 0.27760613
0.19617544 -0.36839244 -0.10231649 -0.32381693 -0.31316888 0.23962167 0.1884627 -0.7859915
-0.121921964 0.15221836 -0.27738318 -0.19984187 -0.18750142 -0.060273156 -0.13706894 0.4696392
-0.4023753 -1.1776923 -0.00871724 0.2517914 -0.062402725 0.22517572 0.3542443 0.09347903
-0.37837276 -0.20390587 -0.14858371 -0.06853615 -0.23789689 0.033410564 1.0181068 -0.20279263
-0.11480091 -0.1006235 0.30525485 0.08789776 -0.31290722 -0.04145736 -0.03344524 0.07840327
-0.14872931 0.07987424 -0.42718998 -0.86698264 -0.19679143 -0.17717963 -0.090396695 0.06888244
0.16591163 -0.732243 -0.18396373 0.013257802 0.12678643 0.2629213 -0.35938522 0.30243284
-1.03351 0.22329156 0.27860758 0.16968632 -0.18907648 0.43826097 0.0826998 0.28096518
-0.07930485 0.040562596 0.2758583 -0.20951459 0.110129036 0.21440296 -0.227969 -0.16538809
-0.049445268 0.118050724 0.06121461 -0.058418974 -0.31000465 0.30533865 0.19861987 0.60801554
0.29142383 -0.0992736 0.02384387 -0.4717693 -0.2760455 -0.08144165 -0.46678337 0.103355974
0.27202314 0.4178032 0.46254277 0.16849989 -0.18185973 -0.5296019 -0.4831879 -0.065233834
-0.7003143 0.015959812 -0.4785648 0.2626319 0.31281224 -0.263764 0.11520325 -0.47502583
0.0643253 0.11674768 -0.2436865 0.027587954 0.28364104 -0.65274256 -0.5795723 -0.15315166
0.2367134 -0.1418736 -0.32232246 0.4297141 -0.21542563 -0.51247895 -0.5786654 -0.7462308
-1.1357373 -0.40919554 -0.5233046 -0.43114215 -0.070396096 0.0058650933 -0.13010783 -0.1909235
0.12989455 0.09496096 -0.49056002 0.20062733 0.15652606 -0.043016292 0.14472342 -0.309352
0.3126266 0.10903491 0.24890512 -0.06553217 -0.11810878 -0.20359585 -0.011329904 -0.16848664

layer3.bias f4 [16]
00000000: 2d21 0fbe 2a25 783d bf0d d83c a55f 22be
00000010: d045 23bd 09c3 0a3e 0288 003e 2120 2c3d
00000020: 72a0 173d 37ca 57be 8627 603d d13a bebd
00000030: 8842 d8bd 9c55 833d 1693 ae3d e45d 043e
-0.139775 0.060582317 0.026373742 -0.15856798 -0.0398615 0.13550963 0.12551883 0.042022828
0.037018247 -0.21073233 0.054725192 -0.09288562 -0.10559565 0.06412813 0.08524148 0.12926441

bn3.weight f4 [16]
00000000: 1949 113f 4291 713f 1fd2 313f 1f3d 783f
00000010: 59f5 7f3f 7b6b 343f 952a 273f b642 483f
00000020: 55ea 603f ea07 843f 589d 763f 2625 593f
00000030: 31f6 aa3e d183 733f a577 593f dad6 5b3f
0.56752163 0.9436227 0.69461244 0.96968263 0.99983746 0.704765 0.6529935 0.7822679
0.8785756 1.0314915 0.9633384 0.8482231 0.33390954 0.9512301 0.8494819 0.8587471

bn3.bias f4 [16]
00000000: 8eca 9cbe 1674 74bd a099 33be 3cd7 b73e
00000010: d6ab 9a3d 90ee 0ebf 26f2 e5be 73f0 9ebe
00000020: f187 14bf 2843 bebd 4eb6 833d e7a5 74ba
00000030: a810 72bf 8a04 e0bd 8b8a febd 8962 1ebd
-0.30623287 -0.05968102 -0.17539072 0.35906398 0.07552306 -0.5583277 -0.44911307 -0.31042823
-0.5801993 -0.09290153 0.06431256 -0.00093325827 -0.94556665 -0.10938366 -0.12428769 -0.03866819

bn3.running_mean f4 [16]
00000000: 42b9 8bbf 403b 1ebf 033f 15bf 3f42 1fbf
00000010: 32b1 2dbf db22 073f bcf5 3fbf 72dd 63bf
00000020: 844a 5e3e 535f 83be e789 35be 8647 2dbf
00000030: 471e 573c 08a0 793d a801 7cbf add8 aebe
-1.0915911 -0.6180916 -0.58299273 -0.6221046 -0.67848504 0.5278756 -0.74984336 -0.89009774
0.21708113 -0.25658664 -0.17728387 -0.6768726 0.013129777 0.060943633 -0.9844003 -0.34149686

bn3.running_var f4 [16]
00000000: 6866 ba3e d0f8 f33f aa88 db3e c996 313f
00000010: c10d 643f 3440 f43e ac8d cd3e a634 313f
00000020: 2233 e23d 8d78 d93e 621f b13e 73cf 9e3e
00000030: 1ada fc3d 1c66 813f 24ed 193f 858a ca3f
0.36406255 1.9060307 0.42877704 0.69370705 0.89083487 0.47705233 0.4014715 0.6922096
0.11044909 0.42474785 0.34594256 0.31017646 0.12346287 1.0109286 0.6012747 1.5823523

layer4.weight f4 [3, 16]
00000000: 0150 81bd eb19 8a3e cce1 893c 06fa 043e
00000010: 89a4 253e 7672 f0be 045b 87be 6bde 9cbe
00000020: 89d3 363e 4e33 143e ef84 e73d ac91 073d
00000030: 188a 08bf 6f1d a73e 3a16 5abe b62e 723d
00000040: 4eb6 80be f46e 82be 9700 a43e 3d01 d7bd
00000050: c81f a0be 8b75 78be 70a1 303e 48bb 883e
00000060: 0aab 403e 85cb 4e3e 6cbf 4e3e 1b0b a7be
00000070: 8a7b 80bd 51a7 8dbd 2f3f a8be b834 d2be
00000080: a7f5 2fbc 1a13 00bd ec6c 5fbe 6299 c6be
00000090: d2ba 243e dd89 2b3f 1a24 c6bd 0386 ba3d
000000a0: 727c 7cbe ddba e2be 97ed d2be d330 4e3e
000000b0: c1ea 943e fc36 02bd dac9 923e 4297 3a3d
-0.06314088 0.269729 0.016831301 0.12986001 0.16176046 -0.46962327 -0.26436627 -0.3063844
0.17854132 0.14472696 0.11304652 0.033097908 -0.53335714 0.32639644 -0.21297541 0.05912658
-0.25139087 -0.25475276 0.320317 -0.10498283 -0.31274247 -0.24263589 0.17249084 0.26705384
0.18815246 0.20194824 0.20190209 -0.3262566 -0.06273563 -0.06916679 -0.32860705 -0.41055846
-0.01073972 -0.031268217 -0.21818894 -0.38788897 0.16086891 0.6700724 -0.096748546 0.09107592
-0.24656847 -0.4428319 -0.41196892 0.20135812 0.29085353 -0.03179072 0.28669626 0.045554407

layer4.bias f4 [3]
00000000: 3281 813e 2114 243c 5df9 91bd
0.2529388 0.010014565 -0.071276404
